…
ecution":{"iopub.status.busy":"2023-05-11T08:25:51.442048Z","iopub.execute_input":"2023-05-11T08:25:51.442517Z","iopub.status.idle":"2023-05-11T08:25:51.870368Z","shell.execute_reply.started":"2023-05-11T08:25:51.442482Z","shell.execute_reply":"2023-05-11T08:25:51.868618Z"},"trusted":true},"execution_count":9,"outputs":[{"name":"stdout","text":"Model: \"sequential\"\n_________________________________________________________________\n Layer (type)                Output Shape              Param #   \n=================================================================\n dense (Dense)               (None, 32)                672       \n                                                                 \n dense_1 (Dense)             (None, 64)                2112      \n                                                                 \n dense_2 (Dense)             (None, 128)               8320      \n                                                                 \n dense_3 (Dense)             (None, 256)               33024     \n                                                                 \n dense_4 (Dense)             (None, 512)               131584    \n                                                                 \n dense_5 (Dense)             (None, 1024)              525312    \n                                                                 \n dense_6 (Dense)             (None, 2048)              2099200   \n                                                                 \n dense_7 (Dense)             (None, 256)               524544    \n                                                                 \n dense_8 (Dense)             (None, 128)               32896     \n                                                                 \n dense_9 (Dense)             (None, 64)                8256      \n                                                                 \n dense_10 (Dense)            (None, 32)                2080      \n                                                                 \n dense_11 (Dense)            (None, 16)                528       \n                                                                 \n dense_12 (Dense)            (None, 1)                 17        \n                                                                 \n=================================================================\nTotal params: 3,368,545\nTrainable params: 3,368,545\nNon-trainable params: 0\n_________________________________________________________________\n","output_type":"stream"}]},{"cell_type":"code","source":"model.compile(optimizer='adam', loss='mse', metrics=
…
